model.pth (torch, 147124 bytes, 6 tensors)

fc1.weight f4 [128, 16]
00000000: 0684 41be c02e 1c3e ec00 26be 2824 053d
00000010: d295 023e 205e f93c 6001 3b3c 3014 433e
00000020: 8095 bebd 6257 2bbe 885f 34be b87c 803d
00000030: 0660 53be 3c32 c53d 28ef ad3d 68d9 5dbd
00000040: 9a2a 383e 700b d53c 5863 2cbe 780b 9fbd
00000050: 9487 f3bd 24ca 513e a01f 153d c4bd e2bd
00000060: ec09 f63d 2c54 1e3e a4d7 313e 74d3 633e
00000070: 308d 59be aa20 753e 84cb e33d 988d f0bd
00000080: 24a9 2abe 9abe 2ebe b464 f4bd 2475 b03d
00000090: 687d 803d 008a 43bd e825 5c3d 047c 2c3e
000000a0: 143f fdbd 1e1f 183e c02e 663c d4a4 cfbd
000000b0: 884b 63be 4c2c 12be 881e 65bd b07f 61be
000000c0: f6b3 1a3e 88ad fdbd b052 fb3d dcc8 02be
000000d0: 18b0 963d 40d7 813b 989b 56bd 5aa3 493e
000000e0: 3cd4 6cbe 98ef 0a3d a071 6bbe 5cb6 89bd
000000f0: 80c0 5e3b 2278 49be 6081 46be 70a0 7fbe
00000100: 7046 c23d 0085 753e 74d9 26be c437 fabd
00000110: f854 5dbe 6837 bf3d a8bc 1a3d 3868 c43d
00000120: a863 f83d b85f 043d 6889 2dbd 6cb1 cabd
00000130: 70fa d3bd ccba dd3d 5eaa 6a3e c680 2c3e
00000140: e0f2 6cbd 30a4 e1bd 52c7 3dbe 5058 413d
00000150: 40c5 653c 2085 a5bc 607f bfbc de62 67be
00000160: 86cf 5a3e a450 653e 6028 c73c 200f 75bd
00000170: 9e25 633e 3674 433e 3c8c 493e fc47 43be
00000180: e4aa 0e3e f0ad 2ebd 2cc7 783e e05c 8fbd
00000190: 021a 7a3e 248d 0abe 20ff 3ebe 5a61 533e
000001a0: e853 bdbd 68da 513d 54eb 7abe f817 bebd
000001b0: d0c4 b13c f0d3 653e 189d 753d 3062 dc3c
000001c0: a295 39be 4ca4 d8bd 0046 1cbd d087 7b3e
000001d0: 3085 463e e885 743e a8e9 ccbd 20bd 483c
000001e0: 803e f1bd 80bf 6b3c 8013 e8bb c86c 1c3e
000001f0: 667d 55be 7cf2 debd 647d 1a3e 40cb cabd
00000200: 58ec 15be 78fd 053d 00ee 14bb 507f fbbc
00000210: 00ba 1aba 68bc 363d 5c24 453e dc98 0c3e
00000220: c450 013e 4647 3ebe 0020 29bc f02e da3d
00000230: 8028 ac3c 5cda 963d f8bc 593d 62af 28be
00000240: bc5c d53d c006 da3b de4b 0abe 22ff 62be
00000250: 9a4c 01be c8a4 063e 108d 8c3c 7c8b c33d
00000260: accf fd3d c077 57be 483b e73d b0b9 d53c
00000270: 606c 183c c0d7 113d 1029 39be e0a6 06bd
00000280: 2868 10be 0829 c9bd e0b0 bf3d b4f9 c93d
00000290: 82af 113e 42d8 483e fcbe e03d 288d 48bd
000002a0: 5257 423e d435 9abd d86a 1a3e 108f 5dbd
000002b0: e80d f63d fcf3 4a3e 80f4 31bc cca1 a6bd
000002c0: 144e 113e 507e 2c3e 280d a33d 40e2 d8bc
000002d0: b09c 0d3d ee90 4d3e a4c8 17be c694 073e
000002e0: 001c 2b3a e44d a13d d642 4fbe 8463 753e
000002f0: ac1b b3bd 4ad3 763e 806c 263d c835 bf3d
00000300: f49a 2c3e a6c4 0b3e 80cd 3a3c 6607 7a3e
00000310: 560c 763e 5a40 1c3e d42d 363e 4038 8cbd
00000320: 7e80 573e 22aa 7b3e 0009 e2ba 04f1 633e
00000330: 0c4a a8bd 240d e7bd acef c7bd 10ca 623e
00000340: 4e0d 2dbe e095 d6bc f0d9 7f3d 6e80 02be
00000350: e0d0 55bd 804c b5bc 6c8a f4bd 9059 4bbe
00000360: 1ccc 003e e22e 4f3e ce0b 3bbe dcbc 163e
00000370: 768a 0cbe 80f5 593c c81c 63bd 20a9 6cbe
00000380: 6005 72bc 2ad5 19be b076 08bd 70ba 89bd
00000390: 9e0a 21be c08d c7bc 60da b3bd b0b9 e73d
000003a0: 1ea3 5b3e 807a 923b b475 7f3e c8dd 3c3d
000003b0: 5c87 f43d 4a11 3d3e 04ca 2ebe 2c8b 14be
000003c0: 425c 3b3e 48c9 13be 00ca c03a 988c c23d
000003d0: f40d 9ebd 4232 58be c08b ddbd 7898 efbd
000003e0: 1c2b fb3d aeef 713e 6830 1cbd f0eb 983c
000003f0: 24c9 4abe b292 7dbe e259 2a3e 4452 d7bd
-0.18898019 0.15252209 -0.16211289 0.032505184 0.12752464 0.03044039 0.011413902 0.1905067
-0.093058586 -0.16732553 -0.17614567 0.06273788 -0.20642099 0.09628722 0.08492881 -0.054162413
0.17985001 0.02600643 -0.16834772 -0.07765859 -0.11891094 0.20487267 0.036407113 -0.11071351
0.12013611 0.15461797 0.17367417 0.22248632 -0.21245265 0.23938242 0.11122802 -0.11745757
-0.16666085 -0.17064896 -0.1193327 0.08616093 0.06273919 -0.04773903 0.053747088 0.16844183
-0.12365547 0.1485562 0.014049232 -0.1013886 -0.22196782 -0.1427471 -0.05593732 -0.22021365
0.15107712 -0.12386614 0.12271631 -0.12771934 0.07357806 0.0039624274 -0.05239448 0.1969122
-0.23127836 0.0339199 -0.22992563 -0.067242354 0.003398925 -0.19674733 -0.1938529 -0.24963546
0.09486091 0.23976517 -0.1629389 -0.12217668 -0.21614444 0.0933674 0.037777573 0.09590191
0.12128383 0.032317847 -0.04236737 -0.09897122 -0.103505015 0.10826644 0.22916552 0.16845998
-0.05784881 -0.110176444 -0.18533066 0.047203362 0.014024079 -0.02020508 -0.023376167 -0.22596309
0.21368226 0.22394043 0.024311244 -0.059828877 0.22182319 0.190873 0.19682401 -0.19070429
0.13932377 -0.04264635 0.24294728 -0.070001364 0.24423984 -0.13530403 -0.1865201 0.20642605
-0.092445195 0.05123368 -0.24503833 -0.092819154 0.021700293 0.22444129 0.05996427 0.026902288
-0.18123487 -0.10578212 -0.038152695 0.24563527 0.19386744 0.23879206 -0.10005504 0.012252122
-0.11779499 0.014388919 -0.0070824027 0.15275872 -0.20848617 -0.10886094 0.15086895 -0.09902048
-0.14640939 0.03271243 -0.0022724867 -0.030700356 -0.000590235 0.044613272 0.19252151 0.13730186
0.12628466 -0.18581876 -0.010322571 0.10653484 0.021015406 0.073658675 0.05315873 -0.16473153
0.10418078 0.0066536367 -0.13505504 -0.22167638 -0.12626877 0.13148797 0.017157108 0.09548089
0.12393126 -0.21041775 0.11290604 0.02608952 0.009303182 0.035606146 -0.1808207 -0.03287399
-0.14102232 -0.09822279 0.09359908 0.0986208 0.14227107 0.19613746 0.109739274 -0.048962742
0.18978623 -0.07529798 0.1507982 -0.054091513 0.12014371 0.19819635 -0.010861516 -0.08136329
0.1418994 0.1684506 0.07961494 -0.026475072 0.034573257 0.20074818 -0.14822632 0.13240346
0.00065273046 0.078761846 -0.2024034 0.23963743 -0.08745512 0.24104038 0.040630817 0.0933643
0.16855985 0.13649234 0.011401534 0.24416885 0.24028143 0.15258923 0.1779092 -0.06846666
0.2104511 0.2457662 -0.0017245114 0.22259909 -0.08217248 -0.11281803 -0.09762511 0.22147393
-0.16899607 -0.026194513 0.0624637 -0.12744305 -0.05220115 -0.022131205 -0.119404644 -0.19858384
0.12577862 0.20232728 -0.18266222 0.14720482 -0.13724694 0.013303161 -0.05544737 -0.23111391
-0.014771789 -0.15022722 -0.033316314 -0.06725013 -0.15726706 -0.024359584 -0.08781886 0.11314714
0.21448943 0.0044701695 0.24947244 0.046109945 0.1193988 0.18463627 -0.1706925 -0.14506215
0.18296912 -0.14432251 0.0014708638 0.094994724 -0.07717505 -0.21112922 -0.10817671 -0.11699003
0.12264082 0.23626587 -0.0381321 0.018667191 -0.19803292 -0.24762991 0.1663585 -0.10513738

fc1.bias f4 [128]
00000000: 90b6 19bd 289f 19be 7067 89bd 54c3 073e
00000010: 6072 d83c 809d ed3c 7c31 dfbd 6efe 753e
00000020: e07e 3b3d 4076 fe3d 303a 833d 4054 d83b
00000030: 0084 673d b0ae f83c 1e37 15be ca35 3ebe
00000040: d8a2 4fbd bc13 403e 6875 e1bd 90c9 983d
00000050: c872 9a3d ac0b 5d3e 2082 35bc 924b 2b3e
00000060: de5b 213e 6ca3 913d c0b5 ffbd b874 703e
00000070: c0f9 743c 3080 283d 008c 64bc 0436 de3d
00000080: 6870 133d 989c 01be d4a5 bbbd b04b 90bd
00000090: 5afc 2f3e d6a8 2abe 8489 3abe 2004 e9bd
000000a0: b85c 083d 22ef 053e b069 71bd 7a6c 3fbe
000000b0: e89c ff3d a4a9 05be 681a 5a3d 9c44 26be
000000c0: 8a89 06be 783b 393e 4e77 763e 4005 ab3b
000000d0: 4c98 0ebe 5c5d d9bd 2c71 ee3d b074 3fbe
000000e0: e03d f83d 90c1 15bd d636 0cbe 7c70 88bd
000000f0: 2070 7b3c bc5e cfbd 68e9 21be 3ad1 0cbe
00000100: 2cd7 fdbd 5082 fbbd 18e1 71be 4250 073e
00000110: a274 7abe c681 763e c8d8 44bd 58d6 13be
00000120: 785a 2fbe 6e38 263e 3e78 013e 18b3 69bd
00000130: 0642 653e a872 b1bd f8c5 acbd 6c78 e8bd
00000140: 84af debd 3c30 37be 308c f9bd 2008 013e
00000150: 9431 efbd 1073 433d 746c b83d 80f0 0dbe
00000160: 6057 723c b4cb 0bbe 5872 29bd a0f1 8abc
00000170: 08d8 60be fe74 20be 084c 61bd 54fb 153e
00000180: a08c df3c cc47 a2bd d024 603e 948e 4c3e
00000190: 507c a23d 44fa 773e 906e a6bd 0425 753e
000001a0: e076 e13d 8e5f 593e 807e 893d 68bb d93d
000001b0: 2660 093e 3091 fd3c 00be f5ba a072 abbc
000001c0: 80c4 413b 4479 ad3d 2abf 3a3e 6e8d 1e3e
000001d0: 2cfc 29be a844 b0bd 6e66 28be 0084 cbbd
000001e0: b6a9 62be 6c00 c33d 0092 61ba acb8 3fbe
000001f0: 80db 3dbe 4e21 62be 4054 8f3b c0f7 4d3d
-0.03752762 -0.1500212 -0.06709182 0.13258106 0.026421726 0.029005766 -0.1089811 0.24022838
0.045775294 0.12424898 0.06407583 0.0066018403 0.05652237 0.030356735 -0.14571807 -0.18575206
-0.05069241 0.18757528 -0.110087216 0.0746032 0.07541424 0.21586484 -0.0110783875 0.16728047
0.15757701 0.071112484 -0.12485838 0.23482025 0.014952123 0.041137874 -0.013949394 0.108501464
0.03599587 -0.12657392 -0.091624886 -0.07045686 0.17186108 -0.16665968 -0.1821652 -0.1137774
0.03329155 0.13079503 -0.058938682 -0.18693724 0.12481099 -0.13052994 0.05324784 -0.1623711
-0.13138404 0.18089092 0.24068949 0.0052191317 -0.13925284 -0.1061351 0.116426796 -0.18696856
0.12121177 -0.03656155 -0.13692793 -0.0666208 0.015346557 -0.10125491 -0.15811694 -0.13751689
-0.123945564 -0.122807145 -0.23621023 0.1321421 -0.24458554 0.24072942 -0.0480583 -0.14437234
-0.17124355 0.16232464 0.12643525 -0.057055563 0.22388467 -0.08664447 -0.08436197 -0.11351094
-0.10873321 -0.17889494 -0.12184942 0.12600756 -0.11679378 0.047717154 0.09005061 -0.13861275
0.01479134 -0.13651925 -0.041368812 -0.016960919 -0.2195741 -0.15669629 -0.05500415 0.14646655
0.027288735 -0.079238504 0.21889043 0.19976264 0.07933867 0.24216563 -0.08126557 0.23939902
0.11009002 0.21227857 0.06713581 0.10631448 0.13415584 0.03095302 -0.0018748641 -0.02092868
0.0029566586 0.08470395 0.18236986 0.15483639 -0.16600102 -0.08606845 -0.16445324 -0.099372864
-0.22135052 0.09521565 -0.00086048245 -0.1872279 -0.18540764 -0.22083017 0.004374057 0.0502851

fc2.weight f4 [256, 128]
00000000: 67f5 98bd 0ce1 113d 0006 30ba e6f9 293d
00000010: 1132 47bd 5457 88bd d621 6a3d cdf7 88bd
00000020: f2f2 233d f684 683d f721 3fbd cb93 923d
00000030: 83ff 43bd 7019 8dbd 4e5f 1c3d 3685 4cbd
00000040: a042 363b 8ad8 573d 5cce e13c 795a 05bd
00000050: 229f 473d 8607 6b3d 682f 6cbc 1335 80bd
00000060: 0244 30bd 74d4 67bd a442 b53c 44fe c6bc
00000070: 0129 2abd 9236 19bd 476d 90bd a04e 2b3c
00000080: 44d6 d3bc 3169 8cbd ce14 a7bd ab5b 2fbd
00000090: 80ef 31bc 9b0d 903d 0bdb 73bd 5255 253d
000000a0: 78e0 d63c fc1b 9dbc 4ea1 5f3d 6668 493d
000000b0: 36b9 2cbd 68f5 ce3c 6edf 4a3d 661c 713d
000000c0: a7db 813d 0a00 1e3d 7c96 f03c 99eb a43d
000000d0: 359b 8c3d e87f 1cbc 3703 963d 60ec 0dbb
000000e0: ea0f 45bd 8477 e63c 1efd 393d b994 8c3d
000000f0: 4989 863d 089a 09bc 9855 70bd 04d8 c73c
00000100: 0433 8fbc a7a5 78bd 1409 9bbd 3be2 b4bd
00000110: 9866 ef3c 8c01 d63c 381f 4bbc 6fd7 86bd
00000120: 0028 013d 422e 413d 00e6 0e39 96e3 7b3d
00000130: 5886 2dbc e005 093d 824f 76bd 1a99 4ebd
00000140: 3018 c73b 58b7 373c 6281 34bd 2bd3 adbd
00000150: 619c 44bd fe27 253d c865 713c 002d 59ba
00000160: 9216 683d d97d a5bd 423b 93bd e67f fdbc
00000170: a265 603d c9f2 58bd 4810 7c3c 290d 8f3d
00000180: 7dc3 16bd b68d 333d c010 653b 7054 8abd
00000190: c0e4 ebbc 00ba 09bd 8aac 4f3d 20ff 253c
000001a0: 9e7c 473d c00d 9abb fe8f 71bd d1b8 62bd
000001b0: d2bf 743d eb13 a63d 2021 78bd 90ec 7abd
000001c0: 1c51 3fbd 0008 e939 021f 4a3d b8d7 d03c
000001d0: 8a89 753d 20a6 a7bc 515c 8fbd c82b afbc
000001e0: 21f5 5cbd 0e65 553d 206c 43bd 42f0 7dbd
000001f0: 7bfa 803d 6caf 6bbd bce8 8abd 38c0 623c
00000200: feb9 473d 5564 a3bd 9404 c13c 3f71 8abd
00000210: c469 c1bc 707e 013d 374d 823d 36d4 50bd
00000220: 8016 3fba 9a42 2d3d 0c32 31bd 54c8 99bc
00000230: b86e 923c 8620 99bd 18e3 3e3c 39fe ae3d
00000240: 64c1 863c f06e 2dbc 0cab 143d 0746 833d
00000250: e85a 9fbc 7a5c 533d 665f 163d 82f1 51bd
00000260: ff24 8c3d 2c43 85bd aa38 70bd ba1b a1bd
00000270: 85ed 6ebd 3818 3f3c 5a54 a2bd 404c 353b
00000280: 6e77 693d ce9d 333d 5ce3 b1bd 9216 203d
00000290: 426e 9cbd 22e2 763d e09e cabc 308d 9bbb
000002a0: 7005 813c 6d56 b3bd 266a 6a3d 3784 b1bd
000002b0: e8c0 7a3c 80ad ac3b 90a0 d0bc ae4a 403d
000002c0: 4ad0 4b3d a0d1 933b b8d8 08bc 8b09 9b3d
000002d0: 5a82 1b3d ec03 b6bc 3246 4b3d a67e 4f3d
000002e0: 5dfa 9e3d da4c 693d d8d1 9ebc ba2f 013d
000002f0: 6449 8abd 4ace 4c3d 256b 993d f7b4 993d
00000300: b7fd 883d 03e2 04bd a0f2 fabb 8b23 aa3d
00000310: d3a8 54bd 009d a3ba d09e 96bc 3873 f33c
00000320: 9983 86bd 7676 0bbd c63b 753d ef48 9e3d
00000330: 09af 38bd 9968 83bd 2421 a8bd 4098 74bd
00000340: 9085 b53b dcd7 34bd d0c0 6b3c aa33 543d
00000350: da5c 1f3d 279f b4bd 6771 953d 1069 09bc
00000360: e00d 9f3b 692d 8c3d bb3d 86bd 94e9 89bc
00000370: b4dd aebd b052 52bc 18d0 3cbd 7e36 183d
00000380: adcd b43d 20a8 91bd e235 63bd 173f ad3d
00000390: 9a82 573d 0044 c3bc 4395 96bd fe23 413d
000003a0: f2dd 113d 4850 a03c 9d6d 9f3d 807f e33a
000003b0: b872 99bd a0a8 283b 175b a33d 609e 88bd
000003c0: e41a 1cbd 6eef 443d 02f6 573d 9c19 c73c
000003d0: 090f 3ebd 266d 663d d605 a7bd 682e 623c
000003e0: e2a8 653d b7e4 39bd 4fda 3bbd 4aff 573d
000003f0: 395e 9a3d 802e caba 0531 863d 9fb1 8cbd
-0.07468682 0.035615012 -0.0006714761 0.041498087 -0.04863173 -0.066572815 0.057161175 -0.06687889
0.040026613 0.056767426 -0.04666325 0.071570955 -0.047851097 -0.068896174 0.038176827 -0.049931727
0.0027810708 0.052696742 0.02756422 -0.032556985 0.048735745 0.05738022 -0.014415599 -0.06260123
-0.043033607 -0.056599095 0.022126503 -0.024291165 -0.04154301 -0.037405558 -0.07052093 0.010455757
-0.025859006 -0.06856001 -0.08158265 -0.04281203 -0.010860324 0.07033845 -0.059535068 0.04036457
0.026230082 -0.019178383 0.05459719 0.049171828 -0.04216882 0.025263503 0.049529485 0.058864973
0.063407235 0.038574256 0.029368632 0.08052749 0.06865541 -0.00955198 0.07324832 -0.0021655783
-0.04811088 0.028133161 0.045407407 0.06864304 0.06569154 -0.00839854 -0.05867538 0.024394996
-0.01748038 -0.060704853 -0.07570091 -0.088322125 0.029223725 0.026123784 -0.01239758 -0.065840594
0.031532288 0.047163256 0.00013627857 0.06149634 -0.010591112 0.03345287 -0.06013442 -0.050438978
0.0060758814 0.011213146 -0.0440687 -0.08487543 -0.048000697 0.040321343 0.014733739 -0.00082845986
0.05666215 -0.08080644 -0.07189037 -0.030944776 0.054784425 -0.052965913 0.015384741 0.06984932
-0.036807526 0.043836318 0.003495261 -0.067543864 -0.0287956 -0.03362465 0.050701655 0.010131627
0.04870283 -0.004701346 -0.058975212 -0.055352036 0.059753247 0.08109268 -0.060578465 -0.06126076
-0.04670821 0.00044447184 0.049345978 0.025493488 0.05994562 -0.020464957 -0.0700003 -0.021383181
-0.05394471 0.052098326 -0.047710538 -0.061996706 0.06297775 -0.057540342 -0.06782672 0.013839774
0.04876136 -0.07978121 0.023561753 -0.06759881 -0.023610003 0.03161472 0.06362384 -0.05098363
-0.00072894245 0.042299844 -0.04326062 -0.018772282 0.01787506 -0.074769065 0.011650823 0.08544583
0.016449638 -0.010585532 0.036295936 0.06409841 -0.019452527 0.051601864 0.036712073 -0.05125571
0.06842994 -0.06506953 -0.05864779 -0.078666165 -0.058331985 0.011663489 -0.07926245 0.0027663857
0.056998663 0.043851666 -0.086859435 0.039084025 -0.076382175 0.06027425 -0.02473396 -0.0047470555
0.015749663 -0.08756719 0.057230137 -0.08667796 0.0153047815 0.0052697062 -0.025467187 0.04694622
0.049759187 0.004511073 -0.008352451 0.075701796 0.03796611 -0.022218667 0.04962749 0.05065789
0.07762597 0.056958057 -0.01938717 0.031539656 -0.067522794 0.05000142 0.07491139 0.075052194
0.06689017 -0.032442104 -0.0076583177 0.083075605 -0.051918816 -0.0012482703 -0.018386275 0.029718027
-0.06568069 -0.03404852 0.059871458 0.07728755 -0.0450888 -0.06416435 -0.08209446 -0.05971551
0.0055396035 -0.044151172 0.014389232 0.051807083 0.03890691 -0.088194184 0.072970204 -0.008386865
0.004853949 0.06844599 -0.06554743 -0.016835012 -0.0853838 -0.012837097 -0.04609689 0.037161343
0.08828292 -0.071121454 -0.05547131 0.08459299 0.052614786 -0.023836136 -0.07352688 0.047153465
0.035612054 0.019569531 0.07784579 0.0017356724 -0.07492584 0.0025735274 0.079763584 -0.06670833
-0.038111582 0.0480799 0.052724846 0.024304204 -0.046401057 0.056256436 -0.0815541 0.013805009
0.056069262 -0.045384135 -0.045862492 0.052733697 0.07537503 -0.0015425235 0.065523185 -0.06869816

fc2.bias f4 [256]
00000000: 52a5 573d f020 0d3d 6ea0 4d3d bc5a 08bd
00000010: 433f abbd 8277 3d3d e07c a0bb f822 3b3c
00000020: 1660 523d 7a32 75bd b597 5dbd 00b0 70bd
00000030: 7720 98bd 20e7 733b a80b 82bd 9a47 a9bd
00000040: ce82 4c3d 648a 8fbd 802d 93bb d788 9d3d
00000050: 8b89 11bd 817c a53d a8ce 2b3c 9268 1b3d
00000060: a0bf d7bc a5ff 5abd 0012 7ab9 c224 4c3d
00000070: 4058 bbba b523 803d 1226 7fbd 8e0b 03bd
00000080: 8cc7 c33c 6453 29bd 24d2 6ebd c198 6abd
00000090: fd6a a7bd 3860 e73c 40f6 983a e4ef 863c
000000a0: 3979 803d e22f e7bc c650 f7bc 316e 943d
000000b0: 40ba f23b e5af 923d 2759 24bd 5dde 9a3d
000000c0: 7ad0 2c3d 7dee b43d 342f d33c 3214 92bd
000000d0: 1201 383d 9cd3 e1bc b6fc b0bd 51d3 9abd
000000e0: 6a20 583d 70b9 af3b 53e1 883d 96de 6fbd
000000f0: 879a 56bd e319 20bd e845 043d f8d1 08bc
00000100: f407 a5bc f1bd 9a3d 69d2 963d 86b9 2dbd
00000110: 8899 a8bc 74d2 83bd 80f0 7c3a dfcd 6dbd
00000120: b44c 04bd 82de 563d 219e a43d c256 4c3d
00000130: a266 97bd 8e92 3ebd 86ef 513d 2788 82bd
00000140: 79ab aa3d 1a61 82bd 4cb7 8fbd 80e6 633b
00000150: 8d02 a43d dff9 2fbd 808a c53a d3c9 b3bd
00000160: ed82 893d 4897 623c 64df f93c def6 253d
00000170: ee0f 013d f59e 8fbd 8254 3d3d 260e 073d
00000180: 83b7 893d f814 61bc 7378 46bd 1097 a43c
00000190: d96f 67bd 597f aa3d af98 b03d de57 4a3d
000001a0: d060 f3bc 6207 a8bd 94dc adbc 1c34 4bbd
000001b0: 9393 87bd 402c 2b3b 5a01 0f3d 1803 093c
000001c0: bc30 59bd 30dc f93b 0826 82bc e9b7 2bbd
000001d0: 0052 7939 e133 21bd bc43 95bc bc96 dd3c
000001e0: 50a0 b2bd 9709 823d 7f94 843d 4dbd 21bd
000001f0: 54a3 80bc 7e91 8fbd b1ef 69bd b6c4 1b3d
00000200: bbbf b03d b8e6 ab3c 0680 4a3d d3ba 983d
00000210: c03b a5bd 0e13 7e3d 7995 9bbd 80d0 99bd
00000220: 0070 0b38 ef7b b23d 69d6 28bd 5b14 9b3d
00000230: 63b7 923d 4049 a4ba a077 003c 50c1 953b
00000240: ec08 b53c 7402 81bc dcf6 9cbd 3bef 7dbd
00000250: b921 13bd e299 393d 50f5 e03c 52f5 693d
00000260: 9bcb af3d e8fe 4dbd 9c69 8ebd 8b45 a53d
00000270: 4563 31bd 9a66 1c3d 7ad7 6e3d 3454 65bd
00000280: 7d99 56bd 6e90 9cbd 3623 90bd 4294 463d
00000290: 0db9 a4bd af8c b2bd 96a2 97bd 8634 2f3d
000002a0: 689a 73bd 99d3 9abd 2171 2abd cc23 90bc
000002b0: e65e 0a3d 9c6e e9bc 0aec 84bd ef7f 94bd
000002c0: 28db 80bd 9396 9cbd eb9f 35bd 8095 f83b
000002d0: 6a8b 2d3d e8d1 47bd 6823 8e3c 286d ba3c
000002e0: 56bf 2d3d e677 0f3d d08d 0e3d b0e5 50bd
000002f0: 0029 bebb 4045 4abd 4bbf acbd 207a 7bbb
00000300: 22be 493d 1655 7abd 3267 4d3d ab00 5ebd
00000310: 72c3 31bd 0f4a 8d3d 1a2e 4a3d 8867 043d
00000320: be71 20bd ae83 80bd d0f5 263c ba2f e0bc
00000330: 4457 4dbd 8f5d 9b3d 05cd 26bd 6a0f 643d
00000340: 56bf 53bd bf0c a23d 18bb 843c d264 743d
00000350: 3e50 5e3d d0ef a2bb ad62 92bd 9adc 393d
00000360: 90d9 cbbb 4ae1 693d 90c9 993b f388 67bd
00000370: a806 fcbc a6ac 183d 882d e93c 941c cebc
00000380: 2c8c 013d ec4b 83bd 5cc8 92bc 3805 8abc
00000390: d8d0 f8bc a3b2 8d3d 771b 70bd f01a 5dbc
000003a0: d07c 9b3c 6aca 4b3d 00ab 62bc a474 98bd
000003b0: 66aa 9cbd dffe 1bbd 6d38 95bd 6316 15bd
000003c0: 008b 96ba 02cb 88bd ad37 9d3d 20df 183b
000003d0: 965f e5bc edec 33bd 62e9 30bd afad 48bd
000003e0: e6d4 6a3d a5a9 9cbd f0d1 aabb 7edf 67bd
000003f0: 6e1d 283d 5384 82bd 583e 863c 30aa 953c
0.052647896 0.03445524 0.050201826 -0.033289656 -0.083616756 0.04625655 -0.0048976988 0.011421911
0.051361166 -0.05986259 -0.054099757 -0.058761597 -0.07428067 0.0037216619 -0.063498795 -0.0826561
0.049929433 -0.07008818 -0.004491508 0.07692116 -0.03553156 0.08080388 0.010486282 0.037941523
-0.026336491 -0.053466458 -0.00023848563 0.049839742 -0.0014293268 0.062568106 -0.062292166 -0.03199344
0.023898862 -0.041339293 -0.058305874 -0.057274584 -0.08174703 0.028244123 0.0011670068 0.01647181
0.062731214 -0.028221074 -0.030189883 0.0724758 0.0074074566 0.071624555 -0.040124085 0.07561944
0.042191006 0.088345505 0.025779344 -0.07132758 0.044922896 -0.027566724 -0.08641951 -0.07559837
0.052765287 0.005362682 0.06683602 -0.058561884 -0.052393463 -0.039087187 0.03229323 -0.008350842
-0.020145394 0.0755576 0.07364351 -0.042413257 -0.020581022 -0.06436625 0.00096488744 -0.058057662
-0.032299712 0.052458294 0.08037973 0.049887426 -0.073926225 -0.046526484 0.051253818 -0.06373625
0.08333487 -0.06366177 -0.07017383 0.003477484 0.08008299 -0.042962905 0.0015071183 -0.08778729
0.06714425 0.013830014 0.030502029 0.040518634 0.031509332 -0.070127405 0.04622317 0.032972477
0.06724455 -0.0137379095 -0.048454713 0.020091563 -0.05650315 0.08325071 0.08622872 0.049400203
-0.02970925 -0.08204533 -0.021223344 -0.049610242 -0.066199444 0.0026118904 0.0349134 0.008362554
-0.053024992 0.0076251253 -0.015887275 -0.041923437 0.00023777038 -0.039356116 -0.018220775 0.027049415
-0.087219834 0.06349485 0.06473636 -0.039487172 -0.01570288 -0.07010172 -0.057113353 0.038029395
0.0863032 0.020984039 0.0494385 0.07457509 -0.08068037 0.06202989 -0.07596869 -0.07510471
3.324449e-05 0.08715045 -0.041220102 0.07572242 0.071638845 -0.0012534037 0.007841021 0.004570164
0.02209898 -0.01574824 -0.07664272 -0.061995726 -0.035920832 0.04531277 0.027460724 0.05711872
0.085837565 -0.050291926 -0.06953737 0.08069905 -0.04330756 0.038183786 0.058310963 -0.055988505
-0.05239247 -0.07644735 -0.07037966 0.048481233 -0.08043108 -0.087182395 -0.07404058 0.0427747
-0.059473425 -0.0755989 -0.041611794 -0.017595194 0.03378191 -0.028495125 -0.064903334 -0.07250964
-0.06291801 -0.07645907 -0.044341963 0.007586181 0.042369284 -0.048784167 0.017350867 0.022757128
0.0424188 0.035026453 0.03480321 -0.051000297 -0.0058032274 -0.04938245 -0.08434924 -0.0038372353
0.04925359 -0.0611163 0.050147243 -0.054199856 -0.04339928 0.06898891 0.049360372 0.032325298
-0.039170973 -0.06275116 0.010190442 -0.027366508 -0.05013205 0.07586204 -0.040722866 0.055678762
-0.051696144 0.079125874 0.016202495 0.059666462 0.054275744 -0.0049724355 -0.07147727 0.045376398
-0.006221004 0.057099618 0.0046932176 -0.05652709 -0.030764893 0.037274025 0.028464094 -0.025160111
0.03162782 -0.06410965 -0.017917804 -0.016848192 -0.030373022 0.06918838 -0.058619943 -0.013495192
0.018980414 0.049753584 -0.013834715 -0.074441224 -0.076496884 -0.03808486 -0.07286153 -0.036398303
-0.0011485517 -0.06679346 0.07676635 0.0023326352 -0.02799968 -0.043927122 -0.04319132 -0.048993763
0.057331942 -0.076495446 -0.005213015 -0.056609623 0.04104369 -0.06372895 0.01638715 0.018269628

fc3.weight f4 [4, 256]
00000000: 06ae 183d e89e 213d 78a9 4c3d 8030 143d
00000010: 7414 de3c 12f8 433d 00c5 00bb 6632 13bd
00000020: dcbf bfbc 0883 6d3c dcf4 3c3d f870 69bd
00000030: 1cf3 0abd 5ac2 3e3d 7a90 5f3d d89c 56bd
00000040: 0440 26bd a40f 9abc a020 73bc 90ff b1bb
00000050: f04f 443d 5ce5 3d3d 9ced 223d e6e7 6b3d
00000060: 9ce4 ccbc e21b 7c3d 308c 4f3d 082a 233c
00000070: d02b 753d c052 6fbc e8d1 68bd 303a c23b
00000080: e82b 7d3d 02d9 353d 9823 79bc 8e1a 2e3d
00000090: 0053 88ba f02e c6bc f0b5 7f3d b8f7 96bc
000000a0: f4a4 443d 780e c3bc 602c 003b 7a0e 3abd
000000b0: f087 7a3d 1414 7bbd f02f 24bd 0039 8bbc
000000c0: 688c 603c 509a 653d 6a99 3abd c046 64bb
000000d0: 8a30 75bd b650 2abd f856 29bc 50b1 713c
000000e0: 40dc 82bc 1c27 613d 483f 073c 704a 293c
000000f0: c09d 343d 4c1f f83c e2ba 69bd c075 c9bc
00000100: 0045 04bd d836 6bbc 8042 2e3a 640b cfbc
00000110: f4dd a6bc 4016 c63c 3496 a6bc a424 46bd
00000120: 80c4 41bc 5094 40bc c0c4 c83a 404c 123b
00000130: 48fb 373d 6aef 3a3d aed5 70bd 201e 673c
00000140: d6de 4b3d 1c5c abbc a0e2 4c3d 105d b13c
00000150: 3cfd a93c 380b 0bbc da11 2e3d 60f5 61bb
00000160: 4837 41bc de5f 163d e8d9 21bc 0c03 debc
00000170: c84c 023c 76cf 56bd 3246 563d f842 6bbd
00000180: 7ebb 35bd a883 30bc d4e4 8e3c 9e04 60bd
00000190: 1071 f6bb 24bf c03c 30ea 833b 3c34 293d
000001a0: 60d0 56bc 6839 debc 8c5a 993c 8019 55ba
000001b0: 342f 06bd de03 413d a810 293c d403 03bd
000001c0: 7892 2e3d 1803 13bd 244f 81bc ac22 90bc
000001d0: da9b 31bd 501c 943c a034 243c 98f7 99bc
000001e0: 0041 f6b9 e8fc 09bc 68bf 00bd be5a 5dbd
000001f0: 0c52 f6bc 7222 20bd 1034 f5bc f479 d23c
00000200: 305f eebb 6cf2 55bd fcb7 f0bc 0059 473a
00000210: a45c 26bd 3058 9f3b c0f8 16bd 5e00 2c3d
00000220: b83d 253c 4066 053b 7446 103d 0c0e b63c
00000230: a277 513d 6c06 3d3d 2cd4 7f3d 661e 4d3d
00000240: 44e3 423d b085 2b3d 3e2a 583d 8630 1f3d
00000250: a87d 66bc f060 d83b c073 8a3a 1497 d7bc
00000260: 3260 5ebd 90f3 923b f8eb d43c fab8 293d
00000270: b0b0 12bd e09b dd3b f4f2 08bd 7880 c1bc
00000280: c40e a23c e27c 053d 109f 16bd 106f 3d3d
00000290: f0a6 edbb a42c 70bd d869 883c 1846 f23c
000002a0: 643d 14bd a089 10bd debb 48bd 0804 5abd
000002b0: d08d 44bc dcf7 7fbd c88b 00bc d800 053c
000002c0: 08f7 2e3c 5eb0 773d 7653 093d dc00 3bbd
000002d0: 70a3 2c3c 40e3 f0bc 343e dd3c f044 bdbc
000002e0: 8c7a 9abc 542a 62bd 0c68 a8bc d437 9f3c
000002f0: e0ad 5cbc 06b2 243d 6cd4 993c a89d 4f3c
00000300: e031 38bc e0fe 07bc 7073 bc3b fa36 5ebd
00000310: c4d3 f73c 129a 09bd b654 023d 5206 233d
00000320: 64fe 1c3d ca6e 7cbd d06a 40bd ccbf d43c
00000330: 26d7 583d fe90 1b3d c884 69bc 3cbe 6fbd
00000340: 3c0d 983c 147c 743d 006a 37bc b8aa 3f3c
00000350: a031 fbbb d697 1a3d e413 363d e8c1 453d
00000360: 1cf5 b83c a0fc 3f3b 2ac7 6e3d 8074 0e3c
00000370: a0ef de3c c484 c23c 7648 72bd 3abc 3ebd
00000380: 4848 f7bc 983a 143d a009 e8bb c86e 553d
00000390: b66a 2b3d cc95 eebc 404b 52bb b4a5 df3c
000003a0: 80ae ba3a f6d1 75bd 26ff 63bd 2461 92bc
000003b0: a433 fb3c 6462 2f3d 089e 743c 28bb 403d
000003c0: bab7 22bd 6073 de3c 0c81 393d b0e5 543c
000003d0: 7813 2f3c e0ae a0bc 08c9 603d 185e 67bd
000003e0: 2ac6 2c3d 4a90 3d3d e491 bc3c 6cd9 243d
000003f0: 0088 9d39 00ce 60ba b4d5 7f3d e4aa c9bc
0.037275337 0.039458185 0.049966305 0.036179066 0.027109362 0.047844 -0.001964867 -0.035936736
-0.023406915 0.014496572 0.046131954 -0.0569925 -0.033923253 0.046572067 0.054581143 -0.05239567
-0.040588394 -0.018806286 -0.014839321 -0.0054320768 0.047927797 0.046361312 0.039777383 0.057594202
-0.025011353 0.06155003 0.050670803 0.0099587515 0.059856236 -0.0146071315 -0.056840807 0.0059273466
0.06180945 0.044396408 -0.01520624 0.042505793 -0.0010400712 -0.024192303 0.06242937 -0.018428668
0.048008874 -0.02381061 0.00195577 -0.045423962 0.061164796 -0.061298445 -0.04008478 -0.016994953
0.01370535 0.056055367 -0.045556463 -0.003483221 -0.059860744 -0.04158088 -0.010335676 0.014751747
-0.015974164 0.05496894 0.0082548335 0.010332689 0.044095755 0.030288361 -0.05706299 -0.02459228
-0.032292366 -0.0143563375 0.00066474825 -0.025273986 -0.020369507 0.024180532 -0.020335294 -0.048374787
-0.011826634 -0.01175411 0.0015317425 0.002232328 0.044917375 0.04563848 -0.05879753 0.014106303
0.04977306 -0.020917945 0.050020814 0.021650821 0.020750634 -0.0084865615 0.042497493 -0.003447853
-0.011792965 0.03671252 -0.009878613 -0.027101062 0.007952876 -0.052443944 0.052313037 -0.057436913
-0.04436826 -0.010773577 0.017443098 -0.054691903 -0.0075208023 0.023528643 0.00402572 0.04130958
-0.013111204 -0.027126983 0.018719934 -0.0008129105 -0.03275986 0.04712283 0.010318913 -0.031986073
0.042620152 -0.035891622 -0.015784808 -0.017594658 -0.043361522 0.018079907 0.010022312 -0.01879482
-0.00046969205 -0.008422114 -0.03143254 -0.054041617 -0.03006842 -0.03909535 -0.029932052 0.025692917
-0.007274531 -0.052233145 -0.029384606 0.00076045096 -0.040615693 0.0048628077 -0.03685832 0.041992538
0.010085516 0.0020355135 0.03522344 0.022223495 0.05113948 0.046148703 0.062458202 0.05007782
0.04758002 0.04187554 0.05277466 0.038864635 -0.014068045 0.0066033527 0.0010563061 -0.026317157
-0.054290958 0.0044846013 0.025991425 0.041436173 -0.035813034 0.0067629665 -0.033434823 -0.023620829
0.019782431 0.0325898 -0.036772788 0.046248496 -0.0072525665 -0.058636323 0.016652033 0.029574439
-0.03619136 -0.0352875 -0.04900729 -0.0532265 -0.011996701 -0.062492236 -0.007845826 0.008117877
0.010679014 0.06047093 0.03352686 -0.045655116 0.010537013 -0.029405236 0.0270072 -0.023104161
-0.018857263 -0.05521615 -0.020557426 0.0194358 -0.013469189 0.04020884 0.018778048 0.0126718655
-0.01124236 -0.008300513 0.005751066 -0.05425165 0.030252345 -0.0335942 0.031819068 0.03980095
0.038328543 -0.061629094 -0.046976864 0.025970362 0.052939557 0.037980072 -0.014252849 -0.05853103
0.018560998 0.059688643 -0.011194706 0.011698417 -0.007665828 0.03774246 0.044452563 0.048280627
0.022577815 0.0029294863 0.058295406 0.008694768 0.027213871 0.023744948 -0.059151135 -0.046566226
-0.030185834 0.03618869 -0.0070812255 0.052107602 0.041849814 -0.029124163 -0.003208831 0.027300693
0.0014242679 -0.060014687 -0.05566325 -0.017868586 0.030664273 0.042818442 0.014930256 0.047053486
-0.039725997 0.027154624 0.045289084 0.012994215 0.010685794 -0.019614637 0.05487922 -0.05648622
0.04218117 0.046280183 0.023018785 0.040246412 0.000300467 -0.0008575618 0.062459663 -0.02461762

fc3.bias f4 [4]
00000000: 0e10 233d 4ed3 6d3d 1e69 3ebd 5e31 67bd
0.039810233 0.058062844 -0.046486966 -0.056443565
